training/models/ppo_model.onnx (onnx, 151342 bytes, 12 tensors)

log_std f4 [6]
000000 31 22 0f be 91 84 84 bd df c5 6c be 78 b9 2f be
       -0.13977887 -0.064705975 -0.23122357 -0.17160594
000010 db d3 9d bc 5b 49 e2 bd
       -0.01926606 -0.11049148

mlp_extractor.policy_net.0.weight f4 [128, 9]
000000 24 74 b3 bd cc ae b5 3e 24 f8 cb bd 1e 9e e0 3c
       -0.087623864 0.35484922 -0.099594384 0.027419146
000010 20 95 40 3e bf 0c 24 bd f1 5a 48 bd ce 5b 2b bd
       0.18806887 -0.040051218 -0.048914853 -0.0418356
000020 f4 8c 92 3e 6e d4 b1 3d 60 06 db 3d de fd d1 3c
       0.28623164 0.08683096 0.10694575 0.025633749
000030 c0 01 58 bd b6 1d 82 3d a6 75 35 be b9 29 ae 3e
       -0.052736044 0.06353323 -0.1772066 0.34016207
000040 96 99 00 3e 77 60 b2 bd d0 ce 6d bc 1c 36 0e be
       0.12558588 -0.087098055 -0.01451464 -0.13887829
000050 a7 5a f7 bd 95 f3 1d 3d d8 89 a1 3d e9 27 f1 bd
       -0.120778374 0.038562376 0.0788762 -0.117751904
000060 e3 f9 89 3b 04 76 1b 3b a2 73 97 bd 3e ba 7f bd
       0.004210697 0.0023721466 -0.07395102 -0.062433474
000070 f8 06 b4 bd 8f 3e 13 bd 34 fe d9 bd ad fa 93 3d
       -0.08790392 -0.035948332 -0.106441885 0.07225547
000080 4c 7d 94 3c f1 b4 57 bc 55 12 b3 bd 4a c9 f1 39
       0.018126152 -0.013165698 -0.08743731 0.00046117074
000090 a2 1c 8c bd 44 e7 39 be e1 fa 0d be f7 21 d0 3d
       -0.06841399 -0.18154627 -0.13865234 0.10162728
0000a0 a8 8a c4 3d a8 b7 61 3b af e4 08 3e c9 df 87 be
       0.09596759 0.0034441743 0.13368486 -0.26537922
0000b0 a7 9a f0 3d b5 9c 36 bc 1e 28 b7 3d ce ee 15 3e
       0.117482476 -0.01114576 0.089431986 0.14641878
0000c0 c7 b7 36 3a 39 bc fe 3d 56 35 85 be 67 f8 29 3c
       0.0006970134 0.124382444 -0.26017255 0.010374165
0000d0 ac 76 98 3c 46 3e e3 bb 39 fa 11 3d a3 c6 ad bd
       0.018611275 -0.006934914 0.03563902 -0.084851526
0000e0 c7 15 2a 3e 41 19 ec bd 93 09 60 3e 83 06 09 be
       0.1660987 -0.11528254 0.21878652 -0.1338139
0000f0 48 44 af 3e 7e eb 3d bd 19 3d 93 bd ea 21 18 3d
       0.34231782 -0.04636716 -0.07189388 0.037141718
000100 23 9e a4 bd 4e ba f0 3d 42 d7 2b be 06 71 b9 bd
       -0.08037975 0.11754285 -0.16781333 -0.09054761
000110 d7 4f a1 bd f8 3c f1 3d 6e a5 29 3e d1 34 05 3c
       -0.07876556 0.11779207 0.16567013 0.008130268
000120 a1 78 d5 bd 53 d0 fa bd 4b ad ef 3c cd b4 09 be
       -0.10423399 -0.12246766 0.029257437 -0.13447876
000130 31 13 7e 3e 69 9f 29 3e aa d6 fc bd f5 4a 34 be
       0.24812008 0.16564716 -0.123456314 -0.17606719
000140 fd b2 da 3d 3a 02 40 bd 7c fd b6 3e 5b 5d 3d 3e
       0.106786706 -0.046877123 0.35740268 0.18492644
000150 2e 3e c9 bd 50 f0 0a be 3b 7c ae bd a4 01 a1 bc
       -0.09826313 -0.13568234 -0.08519789 -0.019654103
000160 9f 6e a1 3d 69 fb 49 be 5d 6a 5c be 34 10 e2 be
       0.078824274 -0.19724812 -0.2152495 -0.44152987
000170 59 ac 9c bb 11 ae 97 be 48 ee ec 3d b1 f6 f3 bc
       -0.0047812876 -0.2962499 0.11568886 -0.029780718
000180 61 b2 37 be 29 a5 1b 3e ef 7b c3 3d 7f c8 0d be
       -0.1793914 0.15199722 0.09545123 -0.13846014
000190 48 4a a4 bd 84 8e 10 be b7 0f a5 3e e1 12 25 3e
       -0.080219805 -0.14116865 0.32238552 0.16120483
0001a0 a3 f0 fe 3d 04 ea ca 3d 2d 66 e0 3d dd 66 d0 3d
       0.124482416 0.09907916 0.109569885 0.101758696
0001b0 5c 54 ce bd 35 26 93 bd a0 03 a4 bc 19 c8 26 3d
       -0.10074684 -0.07185022 -0.02002126 0.04071817
0001c0 a6 8f f0 ba 83 28 16 3e 98 b3 88 38 ec cf 76 3d
       -0.0018353357 0.14663891 6.518437e-05 0.060256884
0001d0 88 58 ad bc da 50 88 3d cc 34 5e 3e 7b 09 93 3d
       -0.021160379 0.06656046 0.21699828 0.07179543
0001e0 37 8e 2e be 94 8a 91 3e 43 eb 6d 3e 26 78 90 bb
       -0.17046438 0.2842604 0.23234276 -0.004408854
0001f0 08 57 6e 3d bc bd ab bd 71 73 68 3e e9 d1 86 3e
       0.05818847 -0.08385798 0.22700287 0.26332024
000200 00 ed 1e 3d 88 c0 2b bd 51 eb 0d 3e 3c e0 02 3e
       0.03880024 -0.04193166 0.13859297 0.12780851
000210 54 55 13 3d 8b 69 f8 3d ba 10 ea 3d e6 93 8f bd
       0.035970047 0.12129506 0.114289716 -0.07010631
000220 a2 fe f8 ba ab aa f6 bd ee a2 99 3b e4 11 f4 3a
       -0.0018996785 -0.12044271 0.004688612 0.0018621054
000230 6b 2f 10 3b b7 6b 8e bd 45 8d 53 be eb df e1 bc
       0.002200092 -0.06954139 -0.20659359 -0.027572593
000240 2a b6 c8 bd 20 4c 6d 3e af 30 b6 be 33 3a 30 bd
       -0.0980037 0.2317357 -0.35584018 -0.043024253
000250 d4 65 df 3c 6f 67 09 bd 62 8a cd bc 9a d5 c1 3c
       0.027270235 -0.033545908 -0.0250904 0.023661423
000260 7f 90 28 bd ee 7c 8a bd 42 e0 0d 3e b7 7d 3e be
       -0.041153427 -0.0676211 0.13855079 -0.18602644
000270 c1 b4 c6 bd 83 cf 0b 3e 25 46 7b be 6d e2 a9 be
       -0.09702445 0.13653378 -0.24538477 -0.33180562
000280 89 39 76 be 2f ea 02 3c 78 60 d3 be 09 79 10 be
       -0.24045385 0.007990404 -0.41284537 -0.14108671
000290 76 fe 01 3d a9 92 b5 3d a9 53 91 3e fe 1d ce 3c
       0.031736813 0.08865864 0.2838414 0.025160786
0002a0 93 ef 9a be 1f e2 24 3c e1 ec 4e 3d 27 3e 09 bd
       -0.30260906 0.010063677 0.050518874 -0.03350654
0002b0 72 0f 27 be 29 4f 62 3e bb 86 d4 3e 5e 4a 7e be
       -0.16314486 0.2210051 0.4150904 -0.24833056
0002c0 2b 7b 5a bc 3a 5a 73 be d3 5b 8d bb 4c f8 7a bd
       -0.01333503 -0.23764887 -0.004313925 -0.06127195
0002d0 24 8a 9f ba 24 77 46 3e a1 01 37 3d 50 f0 8e be
       -0.0012171906 0.19381386 0.044679288 -0.2791772
0002e0 7d 9d 2d be 6f 07 8b bd 96 dc a7 bc e6 be b8 bd
       -0.16954608 -0.06788527 -0.020490926 -0.09020786
0002f0 29 ff 8d 3d 21 32 08 3e c9 36 45 be a2 36 ce 3b
       0.069334336 0.13300373 -0.1925918 0.006293134
000300 98 f2 14 be 94 e4 21 be e4 83 72 be 2c 4c d0 3c
       -0.14545667 -0.15809852 -0.23683125 0.025426947
000310 4a 62 43 3e 30 80 a7 bd e0 a9 b1 bd 20 77 db bd
       0.19080463 -0.08178747 -0.08674979 -0.10716081
000320 9b 02 a0 3d 99 79 bb 3d ca 87 ee 3d 4a 65 63 3e
       0.07812997 0.09154052 0.116469935 0.22206607
000330 6c ea 02 bd e6 9b f0 3c f7 71 d1 bd 87 0d 18 3e
       -0.031961843 0.029371213 -0.10226815 0.1484891
000340 c9 ed 90 bd db 4e 9c 3c c1 79 0e 3c ef 31 c2 3c
       -0.07076604 0.01908057 0.008696021 0.02370545
000350 b4 a6 80 3e 44 04 19 be f9 b1 b9 bd 76 7c a5 bc
       0.25127184 -0.14943033 -0.09067149 -0.02020095
000360 67 03 98 3e 62 ca 20 bd 70 b1 35 3e b1 37 e5 3d
       0.29690096 -0.039255507 0.17743468 0.11192263
000370 77 c3 16 be c4 e8 2a 3e 86 4b 75 3e 11 e9 05 be
       -0.14723001 0.16690356 0.23954591 -0.13077189
000380 e6 e1 12 3d 14 3f 38 bd 1d ef 85 3e 30 d9 e2 3c
       0.035859965 -0.04498203 0.2615899 0.027691454
000390 ec f7 97 3c 49 d5 50 be 41 44 3a be 9c 2d 8a bd
       0.018550836 -0.20393862 -0.181901 -0.067469805
0003a0 ad af 97 3e 21 c2 23 be 43 d2 a0 bd 7a 2a a4 bd
       0.29626217 -0.15992023 -0.07852604 -0.08015914
0003b0 8b cc 1c 3d 3c fc 4c bb 59 54 a8 3d b3 32 55 bb
       0.038281005 -0.0031278273 0.08219213 -0.003253144
0003c0 e6 21 ef bd c8 20 81 3e aa 19 ae 3e f3 78 c0 3d
       -0.116763875 0.25220323 0.34003955 0.09398069
0003d0 a5 c9 cb 3c 0f a9 8d 3d 3e a1 11 be 3e 3a 45 3d
       0.024876425 0.06917011 -0.14221665 0.048151247
0003e0 f6 c6 68 3d 1c dd 9d bc e6 7c 11 bd 1f 73 97 3d
       0.05683037 -0.019270472 -0.035519503 0.073950045
0003f0 4c 7c 57 3d 13 36 68 3d e8 5b 11 3d bc 81 8c be
       0.052608773 0.056692194 0.03548804 -0.2744273

mlp_extractor.policy_net.0.bias f4 [128]
000000 f6 43 80 bd 69 69 9b 3d 68 75 20 3e f7 a6 48 be
       -0.062629625 0.07588465 0.15669787 -0.19594942
000010 04 5e f9 bb 9b d1 a2 3d 6f 23 42 bd 8b f6 c1 bd
       -0.0076100845 0.07950135 -0.047397073 -0.094708525
000020 51 2c 51 be 95 e1 46 3d 0d 9b 8a bc 6f 36 47 3e
       -0.20427062 0.048554976 -0.016919637 0.19454359
000030 1c e6 50 3b ae e1 87 3d e8 0d 4a bc 5f 0f 63 bd
       0.0031875437 0.06634842 -0.012332417 -0.05543458
000040 34 91 c5 3d d2 ce 02 be 3e 30 34 bd a3 38 17 3e
       0.09646836 -0.12774208 -0.04399132 0.14767699
000050 4c be 00 be a7 e9 3f 3d b6 41 af 3d 55 1f 1f 3d
       -0.12572592 0.046853688 0.08557455 0.03884824
000060 06 de 62 3c f4 3d 08 3d 42 d7 f0 bd d9 67 94 bd
       0.01384688 0.033262208 -0.11759807 -0.0724637
000070 89 6c 12 be be 82 18 3d e2 76 12 3d 0a 0c 33 bd
       -0.14299215 0.03723406 0.035757907 -0.043712653
000080 ed 12 99 bd c0 66 15 be 86 43 9a bd 44 e8 66 3d
       -0.07474313 -0.14589977 -0.0753241 0.05637385
000090 ab c6 e6 3c 66 cc 14 be 6a be ba bc 9e 77 88 3d
       0.028170904 -0.14531097 -0.022795875 0.0666344
0000a0 ea 05 fc 3d a6 10 dd bd c7 7c c7 bc c8 9c 1e bd
       0.123058155 -0.10794191 -0.02435149 -0.038723737
0000b0 22 35 5f 3d 86 cf 6f bd 26 eb 1f bd 74 89 00 be
       0.05449403 -0.05854752 -0.039042614 -0.12552434
0000c0 d1 a6 06 3e 67 b8 a7 3d 2a 2a 0d be d1 5d bf bd
       0.13149573 0.08189469 -0.13785616 -0.09344066
0000d0 56 a8 4d be 77 c9 e5 bd b3 6c 7d bc 55 59 b9 3d
       -0.20083746 -0.11220067 -0.01546781 0.09050242
0000e0 f9 81 15 be cf 68 f4 bc 00 bc 09 bd ce 89 f8 3d
       -0.14600362 -0.029835133 -0.033626556 0.12135659
0000f0 15 38 68 bb 3f e9 96 3d 24 e9 1c 3e d5 13 8c 3d
       -0.0035433818 0.07368707 0.15323311 0.0683972
000100 a1 be dc 3d 79 29 19 3d 15 72 98 3c b1 3d a8 3d
       0.10778547 0.037393067 0.018609086 0.08214892
000110 1a 60 2b 3d 7b 6e 60 bd b3 84 c6 3c 26 31 0d 3e
       0.041839696 -0.054792862 0.024233198 0.1378828
000120 4e e1 12 3d e8 af a9 3d d3 b2 82 3c d7 10 a1 3c
       0.0358594 0.082855046 0.01595441 0.01966135
000130 95 62 ca 3b d7 86 0a 3e 9a b5 88 bd 49 cc a7 3d
       0.0061763027 0.13528 -0.06675263 0.08193261
000140 ea 9a e5 bd 79 45 83 bc d8 93 26 3d 93 ca 00 3e
       -0.11211188 -0.016024338 0.04066834 0.12577276
000150 fd 5c ec bc dd d7 96 3d 37 8a 81 bd 4c 36 54 be
       -0.028852934 0.073653914 -0.063251905 -0.20723838
000160 a9 e1 f9 bd 20 d7 9b 3b 7f 77 2e bd 05 33 d0 bd
       -0.122012444 0.0047558695 -0.04259443 -0.10165981
000170 d9 8f 3c 3d 77 88 56 3e de 40 b8 bd d1 de dd 3c
       0.04603562 0.20950495 -0.089967474 0.027083786
000180 b5 99 cd 3b 03 6f ba 3d fb e7 fa 3d 4e 99 27 bd
       0.006274427 0.09103205 0.12251278 -0.040917687
000190 0c 4c 0c bd e2 3a 3b bd c7 d1 a4 bd a9 96 55 3e
       -0.03425221 -0.045710452 -0.08047824 0.20858254
0001a0 a6 d3 27 be 89 e2 b1 3d 6b f1 2f bd a7 c1 47 3e
       -0.16389331 0.08685786 -0.042954843 0.19507466
0001b0 38 ac d3 bc d5 ce a5 bb ba 63 de bd 64 62 e6 3d
       -0.025838956 -0.0050600567 -0.10858865 0.11249235
0001c0 13 11 c3 bd 08 57 90 bd 60 24 20 bd 29 41 2d 3e
       -0.09524741 -0.0704785 -0.03909719 0.16919388
0001d0 f3 51 91 3d d7 e2 50 3c 85 8b 1f be 12 ac 16 bb
       0.07095709 0.012749395 -0.15580566 -0.0022990745
0001e0 36 6f 55 3e a8 d7 8e bd e0 b5 8e bd 97 f6 bd bd
       0.20843205 -0.06974727 -0.06968284 -0.09275549
0001f0 d6 2e c8 3d 93 43 42 be fe f9 a8 bd 57 c2 92 3d
       0.09774558 -0.1897109 -0.08250807 0.07165974

mlp_extractor.policy_net.2.weight f4 [128, 128]
000000 11 f6 5c 3d ae be 16 3e 0d 79 96 bd f7 8e 4b bd
       0.053945605 0.14721176 -0.07347307 -0.04969689
000010 d5 3d be 3d 18 08 45 be 15 4f 5f 3d 65 e3 f1 bb
       0.09289137 -0.19241369 0.054518778 -0.007381844
000020 47 24 6c 3d cd b1 32 bd e4 d1 73 3e e7 d7 45 be
       0.057651784 -0.043626595 0.23810536 -0.19320641
000030 89 ec 54 3d 82 5a da 3c 84 37 40 3e b4 d5 f9 bd
       0.05198339 0.026654486 0.18771178 -0.12198964
000040 59 a2 3a 3e d3 45 73 bc 0d 07 5e 3e 4d 1a cc 3d
       0.18225993 -0.01484819 0.21682377 0.09965954
000050 25 84 b7 bd 7b d5 aa 3e 9b 50 11 be 51 23 04 3e
       -0.089607514 0.33365998 -0.14190905 0.12904097
000060 0f fe 16 be f6 6a 3d 3d 8d 61 d9 3c 85 e5 b0 3d
       -0.14745353 0.046244584 0.026535774 0.086375274
000070 1b 04 ca 3d 27 09 f8 3b bc f9 5f be 2a 85 1a 3c
       0.09864064 0.0075694504 -0.2187261 0.009431163
000080 e9 a4 ff 3d 51 ab cf bc 9a 38 9c 3e e3 e1 31 3b
       0.12482626 -0.025350245 0.30511934 0.0027142696
000090 16 44 82 bd 15 16 11 3e e2 f4 ca bd f6 f6 49 3e
       -0.063606426 0.1416858 -0.09909989 0.19723114
0000a0 09 e6 ad bd 1c 04 84 3d d7 f1 fb 3d ce b5 e2 3d
       -0.08491141 0.06446096 0.12301987 0.11069833
0000b0 0b 8b ac 3c 55 e6 b7 bd 5e 44 e5 be f1 5e 71 3d
       0.021062395 -0.08979479 -0.44778723 0.058928434
0000c0 61 6e 01 3d 60 c5 90 bd b3 ac a9 bd ad 69 02 3e
       0.031599406 -0.07068896 -0.08284893 0.12735625
0000d0 cb 16 39 bd a8 1d 92 3c b2 4d ff 3d 75 d5 f0 3c
       -0.045187753 0.017836407 0.12465991 0.02939866
0000e0 29 05 ba 3d 47 f8 0b 3e 5d 09 88 3c bc ce d1 bd
       0.090830155 0.13668929 0.016606027 -0.102445096
0000f0 86 d5 99 3e 8b 17 b4 3d 1c 56 9f bb d9 59 ab 3d
       0.30045718 0.08793553 -0.00486256 0.083667465
000100 1a a7 f0 3c 00 38 3b 3e 8b 30 6b 3d 32 8a 0b 3e
       0.029376555 0.18283081 0.05741934 0.13626936
000110 25 c4 44 3d 6b d8 4e be 9b 3c f1 bd 56 83 87 be
       0.04803862 -0.20199744 -0.11779138 -0.2646739
000120 be d2 89 3d c1 ee d1 bc 26 55 e5 bd 15 3f 3f 3d
       0.06729649 -0.025626542 -0.111978814 0.04669102
000130 f2 a9 ad 3e a3 97 89 bd 93 d7 14 be 26 bc 23 3e
       0.3391872 -0.067183755 -0.1453536 0.15989742
000140 36 1a 1e be 11 3f b7 bd 13 4e 00 bd e4 6c 0d bd
       -0.15439686 -0.08947576 -0.031324457 -0.034527674
000150 78 9f 15 be 62 8c 56 3e 32 d8 0b 3e ac a8 4c bd
       -0.14611614 0.2095199 0.1365669 -0.049965546
000160 ea 7c b8 bd 4a 93 31 be 5a eb ab be 49 63 44 bd
       -0.090082005 -0.17341343 -0.33577996 -0.04794625
000170 4b 69 00 3e a5 7d 15 3e b4 07 3d bb 17 af ca 3d
       0.12540166 0.14598711 -0.0028843703 0.09896677
000180 e2 f7 33 be 40 ea 0c be b3 41 da bd 12 b8 a0 3d
       -0.17575029 -0.13761234 -0.106570624 0.078476086
000190 ea e2 0f 3e bb f7 c5 3d 28 f4 58 be ba 8d 52 bc
       0.14051405 0.096663915 -0.21186888 -0.012851173
0001a0 4f 38 4d bc 1b 3c 8c 3d 1d 1c dc 3d de cd df 3d
       -0.012525632 0.06847402 0.1074755 0.10927938
0001b0 64 5c f4 3d aa 69 c2 3c 00 9b b4 3d 16 66 36 3e
       0.119316846 0.023732025 0.088186264 0.1781238
0001c0 fd 0d da 3d 1d 69 21 3c df 8a 00 bd 27 71 04 bd
       0.10647199 0.009851721 -0.031382438 -0.032334473
0001d0 76 ff af 3c 02 14 fc bd 81 b0 83 bd 83 a2 bf 3c
       0.021484118 -0.12308504 -0.0643015 0.023392921
0001e0 13 8a f6 bc c0 98 1a 3e b6 58 f6 3d 3f d2 e6 bc
       -0.030095136 0.15097332 0.12028639 -0.028176425
0001f0 92 12 d6 3d 95 a4 23 3e 9f a3 a4 3d ed 87 5f 3d
       0.10452761 0.15980752 0.08039021 0.05457299
000200 fa 10 89 3c 17 8e 05 3e be fb bb 3d 68 c9 e8 3d
       0.016731728 0.13042484 0.091788754 0.1136654
000210 38 c5 8e be c7 30 18 3e 54 f1 a0 bb 9b 5f 12 3e
       -0.2788484 0.14862357 -0.004911581 0.14294283
000220 ee 27 80 3d aa fa 45 3d f2 cb b6 bb 22 9f 3d 3e
       0.06257616 0.048334755 -0.0055785114 0.18517736
000230 ff 9a 84 3c 38 9b af ba da f8 e8 bb ff 03 d3 3c
       0.01618719 -0.0013397699 -0.0071097435 0.025758741
000240 00 fe b8 bd 4e 3c 03 3d 9c 49 ec bd 38 6e ea 3d
       -0.09032822 0.032039933 -0.115374774 0.11446804
000250 e6 f8 89 3e b7 49 2a 3e 88 dd 99 be 83 8c 56 3e
       0.26947707 0.16629682 -0.30051827 0.20952038
000260 be 0c cf bd 6a d5 6e 3e 2e 6e f0 3d 99 ff d6 bd
       -0.10109852 0.23323599 0.11739765 -0.1049797
000270 49 82 09 3e 15 54 ea 3d 71 53 f1 bd 35 1f b2 bd
       0.13428606 0.114418186 -0.11783493 -0.086973585
000280 e0 21 bf 3d 8d c2 94 bd 2d ea 58 be 47 d8 56 bd
       0.09332633 -0.0726367 -0.21183081 -0.052452352
000290 f7 16 98 3d 99 97 48 bd 02 e9 17 3e 1d 25 f7 bc
       0.07426255 -0.0489727 0.14834979 -0.030169064
0002a0 51 ef 26 3b 62 b0 ba 3d f4 31 67 bd 46 b3 a2 3b
       0.0025472234 0.091156736 -0.056444123 0.0049652187
0002b0 c5 9b f5 bd cd 33 65 bd b9 03 11 be f4 c2 0f 3e
       -0.11992601 -0.055957604 -0.14161576 0.14039212
0002c0 13 2b ce 3c 8b 02 eb 3d 3a 5b 0b be 5f c7 2b 3e
       0.025167024 0.114750944 -0.13609019 0.16775273
0002d0 bd ec 1e bc df 58 41 bd 7f cd 88 be 7f af b7 bd
       -0.0096999975 -0.047203895 -0.2671928 -0.0896902
0002e0 51 bb a8 3d 37 9d b7 bb ab 8d 4b bd 7b cc 35 be
       0.08238853 -0.0056034583 -0.049695652 -0.17753784
0002f0 f6 ac fa 3d fe 40 fc bd 29 51 57 3e c9 18 4a 3c
       0.12240021 -0.12317084 0.21027054 0.012335011
000300 32 09 f6 3d 9d d3 dc bb 5c cd b1 bd 84 99 69 bc
       0.120134726 -0.0067390935 -0.08681747 -0.014257792
000310 97 68 d9 bd f5 bf a7 bd 39 a7 af 3d ad 10 81 3e
       -0.10615652 -0.0819091 0.08576817 0.25208035
000320 f0 66 4a be 0a 33 50 bd 5f f4 03 bd 42 73 cb 3d
       -0.1976583 -0.050829925 -0.032215472 0.09934093
000330 71 c1 fd bc e9 2b 42 3e 17 56 b1 bc ed c3 1b be
       -0.03097603 0.18962063 -0.021647496 -0.15211459
000340 5f a4 4c bd b4 3e fb bd cc d9 4d be d5 0a 03 bd
       -0.049961444 -0.12267819 -0.20102614 -0.031992752
000350 73 48 dc 3c 1b 53 f2 3d 2a 4f 70 bd 68 ed f0 3d
       0.026890015 0.11832257 -0.058669247 0.11764032
000360 b0 a5 42 bd 91 1f a6 be 77 53 4d 3d a7 18 fe 3d
       -0.047521293 -0.32445958 0.050128426 0.12407046
000370 3d 2d df bc 64 1a d3 3d 83 95 bf bd 3c 7a 11 3e
       -0.027243251 0.10307768 -0.09354689 0.14206785
000380 04 e4 60 3e 97 30 c2 bd 2e e0 22 3e 87 2d a1 3c
       0.21961981 -0.09481924 0.1590583 0.01967503
000390 fb e3 cb bc da bf e4 bd 63 79 51 3e 61 9d 7c bc
       -0.024888983 -0.11169405 0.20456462 -0.015418381
0003a0 14 aa 30 3e c4 9d a8 bd 04 5a 48 3d 6f 5e 3d 3e
       0.1725238 -0.082332164 0.04891397 0.18493055
0003b0 58 bd 86 be b4 e6 0e bd 49 6f 3a 3e de 8b ab 3d
       -0.26316333 -0.034887984 0.18206514 0.08376287
0003c0 16 5d dd bd 82 47 b4 3c 53 75 0f be 5c 5d cb 3c
       -0.1080877 0.022006754 -0.140096 0.02482479
0003d0 f8 4b 02 3e 81 cb 20 be 12 51 12 bd cd c7 d0 bd
       0.12724292 -0.1570263 -0.035721846 -0.10194359
0003e0 35 a5 96 bc 34 4d a2 bd c3 ae 53 be c8 d5 0d 3e
       -0.018389324 -0.079248816 -0.20672135 0.13851082
0003f0 27 39 11 bc f0 b9 06 3e d6 1d 10 3e e5 6e b5 3d
       -0.008863724 0.13156867 0.14073882 0.08859042

mlp_extractor.policy_net.2.bias f4 [128]
000000 e5 79 44 bc 01 31 c1 bc 92 fa b6 bc c8 ff 98 bc
       -0.011991953 -0.023582937 -0.022336278 -0.018676654
000010 a1 53 7d bb 4d 77 29 3c 4c e8 f7 bc 5f a3 45 bb
       -0.0038654583 0.010343385 -0.030262135 -0.0030157191
000020 ef 58 a2 3d 72 23 29 3c ef 95 4d 3d 27 29 9f 3d
       0.07927119 0.010323392 0.050191816 0.07771521
000030 7c e2 11 be 70 d7 b5 3b 7c 23 1e bd 0c b0 0d bd
       -0.14246553 0.005549364 -0.03860806 -0.03459172
000040 b5 08 b7 bd 85 62 c7 bc af 91 86 bb e6 cc a6 3c
       -0.089372076 -0.02433897 -0.0041067223 0.020361375
000050 ae e8 cf 3c 3b 55 f8 bc e9 00 41 bc 28 47 4a 3d
       0.025379505 -0.030314079 -0.011780002 0.049384266
000060 8f d2 de bc b6 8d 91 3b 18 83 92 3d e8 ad 4a bd
       -0.027200012 0.004441942 0.071539104 -0.049482256
000070 69 fc 91 3a e6 6b 89 3b b8 64 5f 3b b9 6e e7 bb
       0.0011137846 0.0041937707 0.0034087133 -0.0070627597
000080 3c 8d 9a 3c ce 30 92 3c b8 2f 3a bd 77 ec b0 bd
       0.018866174 0.017845538 -0.045455664 -0.08638852
000090 ae bf f3 39 18 d3 b1 bc 83 38 a2 bc d3 7c 2c 3d
       0.00046491384 -0.021707103 -0.019802338 0.04211123
0000a0 ab 13 3b ba 08 4e 3b 3c 10 fa 9a 3a 3d 75 51 3e
       -0.00071364146 0.011432178 0.0011823792 0.20454879
0000b0 d1 b9 8d bc 08 12 e2 ba c9 c4 8c bc 6e 2f 2d 3d
       -0.017300518 -0.0017247805 -0.017183678 0.04228156
0000c0 ca a1 93 bd bc 3c ac bc 7f 78 1d 3d 5d 2d 30 3b
       -0.07208593 -0.021025054 0.038444992 0.0026882507
0000d0 db 41 94 3d 3e 8c c9 3d e7 02 18 3b 18 1b 35 bd
       0.072391234 0.09841202 0.002319509 -0.04421529
0000e0 f8 38 27 bd 6a 82 9d bc 97 d5 3d bc 0b cd 20 3c
       -0.040825814 -0.019227225 -0.011586568 0.009814511
0000f0 ef cb 84 bc 77 45 93 bc d5 b8 28 3c 3a bf 00 3d
       -0.016210524 -0.01797746 0.010297974 0.031432368
000100 de a9 b6 ba c3 ab d4 3b bd 17 0d bd 83 1b 27 3e
       -0.0013936122 0.006490202 -0.034446467 0.16319089
000110 ff 38 34 3c 66 e6 8b 3c 60 2b b6 3d b8 24 98 bb
       0.010999917 0.017077636 0.08894992 -0.004643049
000120 44 dc bc 3b 70 c7 c2 3b c1 80 3a bc db 3a a6 3b
       0.0057635624 0.005944185 -0.011383236 0.005072934
000130 1a 69 f7 3c c4 f1 16 3e 0b c2 98 bd 3a 9b b8 3b
       0.030201484 0.14740664 -0.07458886 0.005633739
000140 ca c8 00 3d b6 b4 43 3a a2 bc 81 be 95 71 a6 3c
       0.031441487 0.00074655877 -0.25339228 0.020317832
000150 58 56 b0 3d 4c 2f 74 3d 31 f2 2d 3c dc 09 1b 3d
       0.08610219 0.05961542 0.010616825 0.0378512
000160 b0 ad a6 3c 37 98 83 bc 39 2a 9a 3b 85 55 a0 3b
       0.020346493 -0.016063793 0.0047047404 0.004893007
000170 31 d1 2d be f5 89 c5 3d e2 71 54 3b 6e 03 9e bc
       -0.16974331 0.09645454 0.0032416512 -0.019288745
000180 a9 66 9e 3d d6 c9 e9 3a 51 60 63 bc e9 98 22 3c
       0.077344246 0.0017836641 -0.013877944 0.009924152
000190 a6 5e 8d bc c4 19 56 ba fe 98 dd 3d 70 21 f1 3b
       -0.017257046 -0.00081672915 0.108201966 0.0073587224
0001a0 fd 17 ed bb f2 59 3e bc 6b b6 49 bd 4f 42 10 be
       -0.0072355256 -0.011618124 -0.049246233 -0.14087795
0001b0 b5 a7 19 3d af 8f db bc ed 66 22 bb e9 75 e2 3b
       0.037513454 -0.026801912 -0.0024780587 0.0069110286
0001c0 a4 39 e7 bd 27 a9 04 3d ba 33 c4 3b e7 27 4e 3c
       -0.11290291 0.03238788 0.0059876116 0.012582756
0001d0 3a 8f 6b bc 37 50 15 bd 9d 1b 89 3c 07 ee 98 3c
       -0.01437741 -0.036453452 0.0167368 0.018668188
0001e0 96 7e 1a 3d c6 63 ac bc 74 65 d1 3d 7b 2c 22 bc
       0.037718378 -0.02104367 0.10224429 -0.0098983
0001f0 44 8b fa 3c d2 7c 9e bc b5 83 67 3c 6e 44 3f 3e
       0.030583985 -0.019346628 0.0141305225 0.18678448

mlp_extractor.value_net.0.weight f4 [128, 9]
000000 df d6 1f be c6 43 91 3e 6b 2d 68 3e 28 5c 99 bd
       -0.1560931 0.2837202 0.22673576 -0.074882805
000010 90 68 18 3e e9 11 7a be d0 97 99 be 64 49 3b be
       0.14883637 -0.24420895 -0.29998636 -0.18289715
000020 81 cd 2a 3e 73 57 61 3e d6 ba f9 bd 89 dd a4 bd
       0.16679956 0.22006015 -0.12193839 -0.08050067
000030 eb f9 f9 bd 0f 71 83 3d b8 3b 8d bc fe f4 e7 be
       -0.12205871 0.064180486 -0.01724039 -0.45304102
000040 eb d6 99 3d 4e a9 5a 3e 1b b4 c0 3d ff cd d3 3e
       0.075116955 0.21353647 0.094093524 0.413681
000050 93 69 57 bb 8b ab d6 3c 4a 8e bb 3c 4b ca ea 3c
       -0.0032869324 0.026204845 0.022894997 0.028660914
000060 c3 27 c6 3e 3f ac 17 bd f0 d3 d0 bd f6 ed d2 3d
       0.3870221 -0.0370295 -0.10196674 0.10299294
000070 22 f1 e5 3e 10 a8 a0 3d 86 ba e6 bd d2 c7 04 3e
       0.44910532 0.078445554 -0.11266045 0.1296685
000080 a0 f7 4b bd 06 18 c3 3d 9c 50 73 be 9b a0 a2 bd
       -0.0497967 0.095260665 -0.23761219 -0.07940789
000090 97 0b e3 bd d9 57 23 be 40 d5 58 3e a0 b7 95 3e
       -0.11086195 -0.1595148 0.21175098 0.29241657
0000a0 99 8b e5 3e 7b 3a 6d 3e 39 81 b8 3e 89 df f7 bd
       0.44833067 0.2316684 0.3603609 -0.12103183
0000b0 43 8a 45 3e ae f6 98 bc a2 62 ac be e8 7f 2d 3d
       0.19291024 -0.018672314 -0.33669 0.04235831
0000c0 f6 02 ba 3d 77 f3 88 3e 25 35 8f be 65 fb 9d be
       0.09082596 0.2674825 -0.27970234 -0.3085586
0000d0 d0 c5 e8 3c a3 33 45 3e 84 5f d0 3e 23 f3 16 3d
       0.028414637 0.19257979 0.40697873 0.036852967
0000e0 bd 4b ee 3d 65 90 82 be 9d c9 15 3e f7 67 38 3d
       0.1163554 -0.2550079 0.1462769 0.045021024
0000f0 dc 81 ba bd 80 b1 1a 3e 8a f9 dc 3d 13 1d 2d be
       -0.091068 0.15106773 0.10789783 -0.16905622
000100 7e 67 59 3e 29 4a e3 3c 2c f8 dc 3d 41 fe 56 be
       0.21230885 0.027745323 0.107895225 -0.20995428
000110 0c 4b 81 bd 77 69 04 3e 0a d2 53 3e c2 15 c9 bd
       -0.06313142 0.12930857 0.20685592 -0.09818603
000120 0e d4 54 bd 2e 41 0f be d1 24 75 3d 26 c0 64 bb
       -0.051960044 -0.13989708 0.059849564 -0.0034904568
000130 1b a0 41 3c 96 c9 b4 3d a5 a7 8a 3c 34 74 0a bd
       0.011817957 0.08827512 0.016925642 -0.033802226
000140 9d d2 4f bd 09 18 68 3d 68 d0 77 3d b6 7c 9f bc
       -0.050737966 0.056663547 0.060501486 -0.019468646
000150 44 42 26 3e 14 8d 9a bd df 35 fe 3d 3e 33 25 be
       0.16236216 -0.0754644 0.12412619 -0.16132829
000160 8f 8f 8c 3e ae e9 e8 3d 53 86 a7 3d 33 31 ae bc
       0.27453277 0.11372696 0.08179917 -0.021263694
000170 2b 69 16 3e 6e 7a d6 3d ea 21 a6 be fc 81 87 bb
       0.14688556 0.1047257 -0.3244775 -0.0041353684
000180 b2 43 d4 3d c3 1c 3c be 91 90 01 3b 4f 3c 82 be
       0.10364474 -0.18370347 0.0019770006 -0.25436637
000190 2e 7a 98 3d 03 8f 5b 3d f2 03 95 be 3c 08 85 bd
       0.07445179 0.053603183 -0.29104573 -0.06495711
0001a0 ac 50 79 bd 73 03 aa bd 08 e4 09 bd 08 7c 94 3c
       -0.06086795 -0.08301439 -0.033664733 0.018125549
0001b0 91 1c 0b 3e 3b 50 58 3e 70 66 cf 3e 71 73 26 3f
       0.13585116 0.21124355 0.4050784 0.650199
0001c0 3c 3b 1c be 85 ba 4a 3e 0f 9c be bd 4f ca 86 bd
       -0.15256971 0.19797714 -0.093071096 -0.06581556
0001d0 ae b9 57 3b 42 79 a3 bd 92 7a e2 bd 9d f3 37 be
       0.003291707 -0.079821125 -0.11058535 -0.17964025
0001e0 a1 31 af bc c3 09 9f 3c 04 f1 a6 bd 95 0a f6 bc
       -0.02138597 0.019413834 -0.08151439 -0.030034343
0001f0 26 f2 4d be 6f b8 21 3c e3 97 1e bd 78 c8 bb 3e
       -0.20111904 0.009870633 -0.03871907 0.36676383
000200 8d 5f 87 3e 27 d8 d0 be 38 7d b3 bd fe 93 b5 3c
       0.26440087 -0.4078991 -0.08764118 0.022165295
000210 3e db 85 bd 5a be 4d bc fb 15 8d be e9 89 2b be
       -0.06535958 -0.01255759 -0.27555832 -0.16751827
000220 b5 14 37 be 7f f7 21 3e c0 fe 21 be e2 d6 f1 3d
       -0.17878993 0.15817069 -0.15819836 0.11808564
000230 9f 50 75 bc de d4 8c 3e 7e 9a 26 be 94 98 5e 3d
       -0.014972835 0.27506155 -0.16269872 0.05434473
000240 bb b8 12 be 5f 29 2d bd 5a db bd be 5e dc 49 3e
       -0.14328282 -0.042275783 -0.37081414 0.1971297
000250 bc 5e a5 bc 5d 1f b5 3e 5b 24 85 be eb 19 e7 3d
       -0.020186774 0.3537549 -0.260043 0.1128424
000260 22 fb 3e be 38 7c a1 bd 6f f0 73 be 8a c8 da bd
       -0.18650487 -0.07885021 -0.23822187 -0.10682781
000270 d5 aa 9c 3c 3c b5 89 3d 18 d7 15 be 27 23 6b 3e
       0.019124428 0.06724021 -0.14632833 0.22962628
000280 f5 a7 01 bd a0 51 40 bd a5 ae cc be 63 1f 55 3d
       -0.031654317 -0.046952844 -0.39976993 0.052031886
000290 0d 99 d5 3e f9 06 96 bd ef 74 27 be b2 fa a4 3e
       0.4171833 -0.07325549 -0.163532 0.32222515
0002a0 e7 73 a8 3b 57 e6 a7 be e9 a6 07 bd 43 04 21 3e
       0.0051407698 -0.32792923 -0.033118162 0.15724282
0002b0 e3 2c 0a bf bc d9 ed 3d 9e a4 ba 3e 1a a6 89 3d
       -0.5397474 0.11613795 0.36453718 0.067211345
0002c0 7b c9 32 3e ab ef 64 be 55 36 80 bc 5f 94 fb bc
       0.17459671 -0.22357051 -0.015650908 -0.030710397
0002d0 c1 77 f3 bc 3e 80 a3 bd 99 b1 fe 3d f6 e5 9e bd
       -0.029720189 -0.07983445 0.12436218 -0.07758705
0002e0 a2 45 79 3e 33 94 77 be 26 a7 fc bd 95 c1 c4 3d
       0.24342969 -0.24177627 -0.123365685 0.09607235
0002f0 11 23 0a 3e ba 1c 0a be 5f 1b 36 bd 68 1c a6 be
       0.1348994 -0.13487521 -0.044459697 -0.32443547
000300 69 9e fa be 53 46 ed be 05 05 2b 3e c1 3f 83 3b
       -0.48948982 -0.46342716 0.16701134 0.004005403
000310 b6 87 2b 3d e8 d4 d2 bd ea 80 5e 3d b7 5e 57 bd
       0.04187747 -0.10294515 0.05432216 -0.05258056
000320 b9 ff 70 bd d2 7a 1b bc 17 0d 54 3d 62 16 34 3d
       -0.058837626 -0.009489732 0.051770296 0.04396666
000330 8c 89 c9 bd 68 d1 c4 be 5f 27 94 bc 4f 20 63 bd
       -0.09840688 -0.38441014 -0.01808518 -0.055450734
000340 2c c9 b6 bd 53 ab 16 be 8b d7 3f 39 37 e0 fd bd
       -0.08925089 -0.14713793 0.00018295475 -0.12396281
000350 88 7d 7b 3d d0 52 a8 bd 63 83 f7 3d 20 73 8e be
       0.061399013 -0.0821892 0.12085607 -0.27822208
000360 71 af f0 bd 36 ce 5f 3b aa 6a 0a be 6e 28 c4 bd
       -0.11752213 0.003415001 -0.13517252 -0.09578024
000370 e3 06 e9 bd 46 dd 1a be 7d a3 c0 3e b1 66 fa bd
       -0.11378267 -0.15123472 0.37624732 -0.12226618
000380 3e f1 6c 3e 5a 2c b8 3e bd 35 1e be c2 18 5a 3e
       0.23138902 0.35971338 -0.15450187 0.21298507
000390 91 14 61 3e 1b 39 4d 3d 91 75 8d 3e 5c ef cb bd
       0.21980502 0.05010329 0.2762876 -0.099577636
0003a0 af 3e 63 bd 4f 9d 06 be 25 e9 9d be 68 c5 2b be
       -0.0554797 -0.13145946 -0.30841938 -0.16774523
0003b0 79 36 47 be 9c 72 69 3e 88 95 be 3e 40 53 59 3d
       -0.19454373 0.22797626 0.37223458 0.05305791
0003c0 ac f0 ce 3d 18 d7 64 bc 59 3a 09 be c8 cf 0c bd
       0.10104498 -0.013967298 -0.13401164 -0.034377843
0003d0 f4 07 6f 3e 80 ec cd 3e 45 88 f9 3d d3 c4 27 be
       0.23342878 0.40219498 0.121841945 -0.16383676
0003e0 f7 79 b4 3e 7f 9a c4 3e 83 0c 04 bd 6e 7d ef 3c
       0.35249302 0.3839912 -0.032238495 0.029234614
0003f0 6a e1 24 3e f5 c4 96 3c 66 84 06 be 60 e7 3d 3c
       0.16101614 0.018404463 -0.13136443 0.011590809

mlp_extractor.value_net.0.bias f4 [128]
000000 d3 3f bd 3e 6e 20 18 be 72 01 c4 3d 91 0b 80 bd
       0.36962757 -0.14856121 0.09570588 -0.06252206
000010 a8 9f e4 bc 60 02 a2 3c 5c 94 18 be e0 36 e9 bd
       -0.027908161 0.019776523 -0.14900345 -0.1138742
000020 e2 1c 8e be 10 a8 21 be 2a ce b3 bc 22 b1 6c bb
       -0.2775641 -0.15786767 -0.021948893 -0.0036116322
000030 0d 1b 46 3d 01 aa 18 bf b2 89 41 3d 8e 30 e3 3d
       0.04836564 -0.59634405 0.047250457 0.110932454
000040 88 0b d3 3d ef 0a ac be 0d 0c 0b 3d 2a 1d d0 3e
       0.10304934 -0.33602092 0.03394704 0.4064725
000050 96 ed 06 bf 12 98 10 be 57 47 9e 3e 61 68 44 be
       -0.5270628 -0.1412051 0.30913803 -0.19180442
000060 f2 52 6e bd 5f 1a 87 3c c7 14 72 bd ee 09 8f 3e
       -0.05818457 0.016492067 -0.059101846 0.27937263
000070 59 b7 ba 3d f1 d2 83 be 47 2e d8 3d 1c b1 87 be
       0.09117002 -0.25746873 0.10555702 -0.2650231
000080 10 2f 9c bd 52 fa 4b bd 3f 72 d3 3d 9d 35 c6 be
       -0.07626164 -0.04979927 0.10324525 -0.3871278
000090 df d4 e2 be c3 8e 98 3e de a0 2d 3e 5b 34 1b 3d
       -0.44303033 0.2979642 0.16955897 0.037891727
0000a0 bc c5 1e bf 7a 90 71 be 11 2d b6 3d 18 b4 84 3d
       -0.6202047 -0.2359027 0.088953145 0.06479663
0000b0 a3 31 a8 3e e7 4b 1b 3e ff 04 af 3e 5e 85 f0 3e
       0.3285037 0.15165673 0.341835 0.4697675
0000c0 26 8c 27 3e 66 53 9c 3d 71 c3 0f 3f 3b 4d 87 be
       0.16362056 0.076330945 0.56157595 -0.2642611
0000d0 59 fc 87 3e 98 8a d9 3d 0e 33 9c 3e 38 fc 16 3e
       0.26559713 0.10622138 0.30507702 0.14744651
0000e0 38 b8 89 be c1 f1 f5 3e 37 20 af 3e f0 1b ca be
       -0.2689836 0.48036006 0.34204265 -0.3947444
0000f0 6e 23 5e be 97 7d f6 bc f0 ce 2a be 39 97 08 3e
       -0.21693203 -0.030089183 -0.16680503 0.13338937
000100 5a fb 50 3e 09 b3 99 3d 41 42 be 3e 12 26 2e be
       0.20408383 0.07504851 0.37159923 -0.1700671
000110 06 11 34 be 1c d3 97 3d 8b a8 36 3c c3 cd 0c be
       -0.17584619 0.07413313 0.011148582 -0.13750367
000120 98 23 b5 be c4 13 cf be 53 95 c6 bd 95 77 0e bd
       -0.35378718 -0.40444767 -0.0969645 -0.03478201
000130 d0 99 33 bd 6c d6 1e be ef 5d e0 bd 44 63 49 be
       -0.04384786 -0.15511483 -0.109554164 -0.19666773
000140 a6 aa 21 3f a7 ce 45 3e 18 9a 8b 3e dd 0d b4 be
       0.63151014 0.19317113 0.27266002 -0.35166827
000150 78 e5 57 3e 98 87 f2 3d f6 a2 fc bd ae bd cc 3e
       0.21083629 0.11842269 -0.1233577 0.39988464
000160 80 9a ea 3b ed a5 b6 be 93 c3 08 3e 41 33 3c 3e
       0.007159531 -0.35673466 0.13355856 0.18378927
000170 ad 54 a3 be 9d 63 47 be c5 6a 5a be dd 05 e0 bd
       -0.3190054 -0.19471593 -0.21329792 -0.10938618
000180 21 38 78 3c ca 99 5c be 06 e4 21 3d 7f 99 ce 3d
       0.015150101 -0.21543041 0.0395241 0.10087871
000190 53 c2 e8 be b2 51 01 3d 25 29 e3 bd 17 09 7a 3c
       -0.45460758 0.03157205 -0.11091832 0.015260956
0001a0 9f 18 f6 3d 95 e7 02 3d ff 8c 11 be 18 72 93 be
       0.12016415 0.031959135 -0.14213942 -0.28797984
0001b0 a0 6d 78 be 20 c9 2f be 36 4f 07 3e 32 c7 e2 3d
       -0.24260569 -0.17166567 0.1321381 0.1107315
0001c0 c5 c9 7c 3d 47 e4 80 3c 14 9e a8 be 97 79 fa ba
       0.06171586 0.015733851 -0.32933104 -0.0019109723
0001d0 ec 27 9a 3e 30 e8 d2 bc e7 3a 18 3d 34 70 23 bf
       0.30108583 -0.025745481 0.03716555 -0.63843083
0001e0 88 e8 67 3e ca 09 93 be 32 49 7e 3e 0d 3a 18 bf
       0.22647297 -0.28718406 0.2483261 -0.5946358
0001f0 89 2f b4 be eb 63 11 be 43 34 48 bd c4 22 fd be
       -0.35192516 -0.14198272 -0.048877966 -0.49440587

mlp_extractor.value_net.2.weight f4 [128, 128]
000000 b0 ba fd 3c 73 cb 67 3e b2 88 9c be 97 86 24 be
       0.030972809 0.22636203 -0.3057304 -0.16066967
000010 be f7 80 bd 7a 5b 04 3e 20 20 8c bd 68 a8 21 3e
       -0.06297253 0.1292552 -0.06842065 0.15786898
000020 42 15 8d 3e 20 59 5b 3e 25 8a de 3b af b8 24 3d
       0.2755528 0.21420717 0.0067913705 0.04021519
000030 85 76 4f bd c1 6f 43 bd e6 2e 8f bd 8d 5c ff bd
       -0.05065014 -0.047714 -0.06991367 -0.124688245
000040 0d 95 0e 3e fe 9e 77 3e fa 43 ca bb d9 33 a1 bd
       0.13924046 0.24181744 -0.006172654 -0.07871217
000050 ac c3 ec 3d 1d 7a 7d bd 3a 50 09 be d7 81 7d 3d
       0.11560759 -0.061884034 -0.1340951 0.061891403
000060 f5 5c 70 be e1 b1 82 3d 18 a8 82 bd 3d ac e1 bd
       -0.2347296 0.06381584 -0.063797176 -0.1101918
000070 8d ef 92 be ed 99 82 be 77 84 8f be 7c cc 5f bd
       -0.28698388 -0.2550806 -0.2803075 -0.05463837
000080 53 4f d2 3d fb 49 63 3d 19 8d 9b bd f4 5d 3c 3d
       0.10269036 0.055490475 -0.075952716 0.04598804
000090 ea 45 be 3e 2d 60 65 bc 21 d7 a0 be 39 98 ea 3d
       0.37162715 -0.013999981 -0.3141413 0.114548154
0000a0 47 3c da 3d 76 90 88 bd 25 fd 3f bd 9a eb 99 bd
       0.10656028 -0.06668179 -0.046872277 -0.075156406
0000b0 ef fc 9f 3c 6a 76 9e bd 3b b7 10 be 5b c8 65 3d
       0.019529788 -0.077374294 -0.14132397 0.056099277
0000c0 65 be 56 be fa e8 5b be df 16 c9 3b 9e 26 49 3e
       -0.20971067 -0.21475592 0.0061367596 0.19643638
0000d0 0f ec 0b 3d 23 91 3c be 3b 92 86 bd 02 73 aa 3c
       0.03416067 -0.1841474 -0.0657086 0.020806793
0000e0 82 13 d6 3e bb 69 6c be 75 b7 2e bd 8e ee b0 3d
       0.41811758 -0.23087208 -0.042655427 0.08639251
0000f0 0b 0a 4c be c4 37 aa 3e e2 8f 5a 3e d0 b7 a2 bd
       -0.19925706 0.3324567 0.2134395 -0.07945216
000100 86 5f 80 3d d6 d8 10 3e 5e 4e ec bc 00 dc 0b 3e
       0.0626822 0.14145216 -0.028845962 0.13658142
000110 8a 85 97 3c e8 f0 ed 3c 6c 05 c1 ba f1 48 8f 3e
       0.018496294 0.029045537 -0.0014726347 0.27985337
000120 15 32 65 be 7f bf f7 bd 57 2d dd 3c c7 88 07 bd
       -0.22382386 -0.12097072 0.026999159 -0.033089425
000130 87 8c 51 3d b3 32 98 3e e9 92 8a 3e 9a 14 81 3e
       0.051159408 0.2972618 0.2706521 0.2521103
000140 7f 97 77 be 04 11 5d be ca 7e 1f 3d cd c8 03 be
       -0.24178885 -0.21588522 0.038939275 -0.12869568
000150 52 10 00 3d 04 b8 28 3e 7b 05 27 3d cb 82 53 3e
       0.031265564 0.16476446 0.04077671 0.20655362
000160 b3 26 5f be 71 ad f2 bc 8f 19 01 3d b9 82 2f be
       -0.21792106 -0.029623719 0.031518515 -0.1713971
000170 46 52 b8 3d 0b be 64 b9 66 b1 cb bd eb 86 24 be
       0.090000674 -0.00021814571 -0.099459454 -0.16067092
000180 04 b5 9b bc 98 3a ef bd 7e a2 ef bc 6f 02 a0 be
       -0.019007213 -0.11681098 -0.029252287 -0.31251857
000190 ca 13 bc bd 7a 44 a5 be b4 8b 95 3c d4 aa 7f bd
       -0.09183462 -0.32278806 0.018255092 -0.062418774
0001a0 1b 66 c9 3c ce f2 1d 3e dd fa 9f bc 28 c8 d9 3d
       0.02458482 0.15424654 -0.0195288 0.1063388
0001b0 95 1d 98 3d 12 5f 94 bc 63 3c 14 be 27 c7 57 be
       0.07427517 -0.01811174 -0.1447616 -0.21072064
0001c0 ad 7a 80 3d 22 26 a4 3d 00 d6 83 3e 6f 7b f5 3c
       0.062733985 0.08015086 0.25749207 0.029966084
0001d0 e2 46 4e be 05 5a c0 3d dc 43 55 3e 46 8f 3d 3e
       -0.20144227 0.0939217 0.20826668 0.18511686
0001e0 d7 e9 a1 3c a8 6d 8d 3c 8f d6 10 be 34 b2 f8 bc
       0.019764824 0.017264202 -0.14144348 -0.030358411
0001f0 94 d3 7e bd 7c c0 49 3e e7 27 ea bc d6 fd 9c 3d
       -0.062213495 0.19702333 -0.02858348 0.07665603
000200 b0 b8 a0 bd 6f b5 20 3e ce fb bc bc da 38 a4 3d
       -0.07847726 0.15694211 -0.023069289 0.08018656
000210 dc eb 08 bd ef a7 23 be ac 98 f2 bd d8 92 2e 3d
       -0.033428058 -0.1598203 -0.11845526 0.04262051
000220 b4 ae 9c 3e a5 96 83 3d 8a c2 81 be 8d fb 45 bd
       0.30602038 0.064252175 -0.25343734 -0.0483356
000230 4c d9 24 bd 0e 08 95 bc 16 32 85 be 55 b5 2c 3e
       -0.040246293 -0.018192317 -0.26014775 0.16866048
000240 86 52 7a 3c 23 56 16 bd ae 89 a8 bd 28 fa b2 bd
       0.015278464 -0.03670324 -0.08229385 -0.0873912
000250 44 94 06 3e 25 c8 af 3d 34 87 84 bd 82 35 cd bd
       0.13142496 0.085830964 -0.064711004 -0.100199714
000260 85 8d 2b 3c db 4d 81 3d e0 52 1b 3e 31 a0 51 3b
       0.010470753 0.06313678 0.15168333 0.003198635
000270 e3 a1 1d be 09 3f 0a 3e 85 3d 35 bd f9 98 09 be
       -0.15393786 0.13500609 -0.044248123 -0.1343726
000280 01 98 1b 3e f0 81 96 be af 4d 2a bc 0d 8f 82 bc
       0.15194704 -0.2939601 -0.010394498 -0.015937353
000290 0a 8d 91 3c 3a 83 74 bd 81 31 85 3c 51 50 ea bd
       0.017767448 -0.05969546 0.016258957 -0.114411004
0002a0 95 63 12 be 30 99 b4 3c a3 8a 80 3e 3a a0 8a 3e
       -0.142958 0.022045702 0.2510577 0.27075368
0002b0 89 55 54 be 04 38 d2 bc 49 01 d0 3c ba 90 44 be
       -0.20735754 -0.025661476 0.025391238 -0.19195834
0002c0 dd 8e c6 bd 5a c6 8b 3c ce bb 45 3e 2b 04 4b be
       -0.09695218 0.017062355 0.19309923 -0.19825809
0002d0 19 6c 9b bd 55 67 b6 bd 43 3e c4 bd 40 fb 20 3e
       -0.07588977 -0.08906428 -0.09582188 0.15720844
0002e0 2d 9d 25 3e 7d 56 3c be f5 9e 20 be 58 89 3f 3c
       0.16173239 -0.18392368 -0.15685637 0.01169046
0002f0 4a bf 06 3d 84 9b 10 bd 80 6b 0f 3e 27 be 8c bc
       0.03289727 -0.03530456 0.14005852 -0.017180515
000300 ba 6c ed 3d d4 1f a1 3d 78 e4 b9 3d 5e 02 c8 bd
       0.115930036 0.07867399 0.0907678 -0.097660765
000310 24 5e 8d bd d9 19 28 bd 8b c3 26 3d 25 35 2f 3e
       -0.069027215 -0.041040275 0.040713828 0.17110117
000320 a9 bc 04 3e 45 ee 25 bc dd fe 17 3e 65 35 61 be
       0.12962593 -0.010127609 0.14843316 -0.21993025
000330 c9 a7 8e 3d 8f 5f 4a 3e f2 f3 4e 3c 62 14 53 3e
       0.06965596 0.19763015 0.012631403 0.20613244
000340 ff cd be ba 95 f7 e4 bc fe 93 73 3e 42 8c 73 3c
       -0.0014557241 -0.027950088 0.23786923 0.014864983
000350 c1 ad 7c 3e 41 59 e9 bc 7d 0f ca 3d c6 1d 9c 3e
       0.24675657 -0.028484942 0.098662354 0.30491465
000360 18 f3 fc 3d d6 c4 ea 3c fb d2 4f bc ad f3 44 bc
       0.12351054 0.028658312 -0.012684579 -0.012020987
000370 97 8e 6d 3d fc 49 30 3e d4 5f 29 3e df b4 24 bc
       0.057997312 0.17215723 0.16540462 -0.010052889
000380 26 f1 21 3e de 05 17 3d 8d 48 38 bd e6 d9 0e 3e
       0.15814647 0.03687083 -0.044991065 0.13950309
000390 35 4e 37 3d 93 a0 58 bd 52 aa 1e 3e b7 b3 40 bd
       0.04475232 -0.05288751 0.1549466 -0.04704639
0003a0 14 51 bd bb 8a 58 1a 3e 1e e8 84 3d 1c ee 2a be
       -0.0057774875 0.15072837 0.06489585 -0.16692394
0003b0 6a 73 76 be 24 58 6d 3e 58 12 d0 bd af 9e 93 3c
       -0.24067464 0.23178154 -0.10159749 0.018020002
0003c0 67 20 d2 3c 0f e2 18 bb fe c5 90 bc a8 02 89 3d
       0.025650216 -0.00233281 -0.017672535 0.0668996
0003d0 79 5e 8e 3d 4f 83 ce bd 1b 5a 3b 3e 7c 7c 38 bd
       0.06951613 -0.10083639 0.18296091 -0.045040593
0003e0 e4 d9 f2 bd 6a 2b 49 bd b1 2e 17 3e 23 56 27 3e
       -0.118579656 -0.04911367 0.14763905 0.16341452
0003f0 bd 6d a6 3d 2a d2 5f be 3d 95 02 be 82 66 e1 3b
       0.081264 -0.21857515 -0.12752242 0.006878675

mlp_extractor.value_net.2.bias f4 [128]
000000 44 31 1d be c6 31 0d be 39 bc a2 3c a5 dc 76 3e
       -0.15350825 -0.13788518 0.019865142 0.24107607
000010 f6 94 20 be bb 2c 2a 3d a6 23 93 3d b2 a7 69 be
       -0.15681824 0.041546565 0.07184534 -0.22817877
000020 53 06 0e be 50 f8 ae 3d 12 43 16 3e 87 31 3b be
       -0.138696 0.085434556 0.14674023 -0.18280612
000030 6b f0 0c 3e 8b eb 88 be 32 a7 61 3e f0 15 fd bd
       0.13763587 -0.26742205 0.22036436 -0.123577
000040 18 08 8a 3d ef fb b5 3d d3 45 81 be 36 51 bf 3d
       0.06739825 0.08885943 -0.25248584 0.09341662
000050 8c 93 48 3e e7 42 88 3d 11 af 94 bc c5 89 57 3e
       0.19587535 0.066533856 -0.018149884 0.21048649
000060 e1 4f 69 3e 8a ff f7 3d b0 13 e2 3d 21 aa db bd
       0.22784378 0.12109287 0.11038911 -0.10725809
000070 a4 bc 60 3e f7 9e b5 3d 68 18 bd 3d 0a 04 4e 3e
       0.2194696 0.08868211 0.09233171 0.20118728
000080 f0 d0 1f 3e 8f 5c 63 3e 27 37 33 be 6d 96 cb bd
       0.15607047 0.22203277 -0.17501508 -0.09940801
000090 08 c0 65 3d 56 1c 29 bd 89 ad 29 be 4d 7b cd 3d
       0.05609134 -0.04128679 -0.16570105 0.100332834
0000a0 a2 15 4d bd b5 73 4c 3e 04 ba 5b be b0 ae b2 bd
       -0.05006946 0.19966014 -0.21457678 -0.08724725
0000b0 49 ff 27 be d8 ba 45 3e e4 28 38 be 5c 02 1b be
       -0.16405977 0.19309556 -0.17984349 -0.15137619
0000c0 d7 c9 6c 3e 94 7b 59 3e 6d 32 3e 3d dc ec e7 bd
       0.23123871 0.21238548 0.04643481 -0.11324474
0000d0 da 1a 2b be b7 b0 b9 bd 32 e7 38 be 91 5b 0f be
       -0.16709462 -0.09066909 -0.18056944 -0.13999774
0000e0 04 37 33 be a8 8b 4d 3e 16 21 26 3d 82 f5 29 3e
       -0.17501456 0.20072806 0.040558897 0.1659756
0000f0 69 5f c9 bd 7e a9 0d be a1 ea d1 3d 94 cf 32 3e
       -0.09832651 -0.13834187 0.1024983 0.17461997
000100 6f a3 44 3e e5 a5 f9 bd 52 0f ae bd b8 ec d6 3d
       0.1920297 -0.12189845 -0.08499016 0.10494369
000110 7d 5f 5c be b4 a5 27 be e6 06 76 bd 85 e2 f8 3c
       -0.21520801 -0.16371804 -0.060065173 0.03038145
000120 72 31 d5 3d c7 d9 10 bd a4 61 d7 3a 18 1a ee bd
       0.104098216 -0.03536394 0.0016432297 -0.11626071
000130 9b 2c 1c bd 2a 8d 87 3e 4c 9e 97 be 6a bb 99 bd
       -0.038128477 0.26474887 -0.29612958 -0.075064495
000140 49 18 01 3e 3e ba f2 3d 0d 9f 72 3d 67 a6 ce 3c
       0.1260692 0.11851929 0.059233714 0.025225831
000150 13 0d 3a be 79 ac d1 3d df b0 74 be 10 3c 5d 3d
       -0.1816905 0.10237975 -0.23895596 0.05401236
000160 79 6f ed bc bf 70 1e be 87 ca fe 3b 73 2c 91 bc
       -0.028983818 -0.15472697 0.007775608 -0.01772139
000170 2f e9 7d 3e 49 5a af 3d 25 6d ac bc 00 ef 7a 3b
       0.24795984 0.085621424 -0.021048138 0.0038289428
000180 55 da 0c be c3 a0 0a 3d 1a c0 1a 3e a5 1b c3 bc
       -0.13755162 0.03384472 0.15112343 -0.023816893
000190 11 ee 78 3c f3 bb 83 bd 3c 53 2d be 40 f2 1b 3c
       0.015193478 -0.06432333 -0.16926283 0.009518206
0001a0 46 85 27 3e 12 22 22 be dc 32 9f 3d 1b 00 da bd
       0.16359434 -0.1583331 0.077733725 -0.10644551
0001b0 cb 58 29 be 11 3d 89 be c4 ec 32 be 9c 7b b7 bd
       -0.16537778 -0.26804402 -0.17473131 -0.089591235
0001c0 38 39 5f be 74 f8 06 be 3e fe 82 be 98 bf f9 bc
       -0.21799171 -0.13180715 -0.25584596 -0.030486867
0001d0 5b 7d ce 3d ea c2 01 be ee a3 27 be 5a 23 5b bd
       0.100825034 -0.1267201 -0.16371128 -0.05350051
0001e0 c3 1b 1a 3e f0 38 82 bd 01 3c 8d 3d a7 0e 6d 3d
       0.15049653 -0.06358516 0.068962105 0.0578753
0001f0 ab a8 77 3d 70 78 41 be fe cd 5c 3d ff f2 84 bd
       0.06046359 -0.188936 0.053907387 -0.0649166

action_net.weight f4 [6, 128]
000000 b9 ed c8 3b 63 1a 00 3c 1d 4f 54 ba 61 bf a6 3b
       0.0061318544 0.007818791 -0.0008098947 0.005088732
000010 68 37 80 39 69 a3 76 bb b4 f4 ae bc 54 b0 98 3c
       0.00024455343 -0.003763402 -0.021356918 0.018638767
000020 ba ea 1d bd 64 34 c4 bb 35 6c 66 bc 50 e4 10 3d
       -0.03855393 -0.0059876908 -0.0140638845 0.035373986
000030 52 eb c4 bd 35 e8 38 bc 2b 61 80 bc 1d 70 1e ba
       -0.09615196 -0.011285831 -0.015671333 -0.0006043928
000040 c6 d7 07 3d 1e d1 08 bb 57 65 92 bc cf d2 e0 bc
       0.033164762 -0.0020876597 -0.017870588 -0.027444271
000050 cc 8f 32 bb 7d 8d da bb cd e5 b3 bc 65 2c be 3b
       -0.0027246354 -0.0066696987 -0.021960163 0.005803632
000060 d1 81 7c 3b 91 5e 59 3c 8a 56 fa bd eb cd b0 bd
       0.0038529525 0.013267175 -0.12223537 -0.08633026
000070 28 31 19 3c a5 4d 3c bc ee df 9d 3c ff 1d 1b 3d
       0.009350099 -0.011493121 0.019271817 0.037870403
000080 da fa 41 bc 89 cc 18 3c e1 d4 68 3c 46 c9 46 bd
       -0.011839593 0.009326109 0.014210911 -0.048531793
000090 83 65 e3 3c 5f fb ad 3b 99 01 53 3d e3 e7 94 bc
       0.027758365 0.005309507 0.051515196 -0.018176978
0000a0 84 45 36 3c 48 be 86 3c 77 c3 18 3a b6 34 80 bd
       0.011124972 0.016448155 0.00058274664 -0.06260054
0000b0 7a 78 5f bc f1 5b 9e b9 11 95 2c bc 13 02 27 3d
       -0.013639564 -0.0003020461 -0.010533587 0.040773463
0000c0 7f d1 b3 3d 96 7f ab bb 60 9d 5d bc 43 7e a0 3c
       0.087801926 -0.0052337153 -0.013526291 0.019591456
0000d0 ae 66 cb 3d 50 7f 01 3d bc a6 7e 3c 34 af 5d bb
       0.09931694 0.031615555 0.015542682 -0.0033826353
0000e0 d9 17 31 bc 44 b9 f6 3b 42 95 26 bb a5 fe d0 3b
       -0.010808908 0.0075294096 -0.0025418554 0.0063780122
0000f0 13 60 b6 bc 1a b1 00 bc 92 f3 4c 3c 9d ad 89 bd
       -0.022262609 -0.007854724 0.012509244 -0.06722567
000100 bd 3d 46 3c 44 37 0f 3c 8e 2a 6a bc 43 fb 70 bd
       0.0120996805 0.008741204 -0.014292372 -0.05883337
000110 3e 6e b7 bb 7c af 93 3b 71 83 c2 bc 85 d7 89 3c
       -0.0055978587 0.0045070034 -0.023744317 0.0168264
000120 b8 0a 4f bc d3 d2 e0 3c a3 39 02 3c 37 1e ce 3d
       -0.012636833 0.027444279 0.007948312 0.10064357
000130 d1 59 23 3b 3f 38 e2 bc 4d 1c 0d 3d 0e af d5 bb
       0.002492536 -0.02761471 0.034450818 -0.0065211123
000140 40 aa 8c bb 08 11 36 bb 42 a7 9a 3b 06 d9 bc bb
       -0.0042927563 -0.0027781148 0.0047196457 -0.005763176
000150 57 cd ad bd db 87 65 3c fd 02 04 3c 55 01 10 bc
       -0.08486431 0.014009441 0.008057353 -0.00878938
000160 ef 2e af bc b9 15 cd bb 91 10 5a bc 2d c9 27 bd
       -0.021384684 -0.006258693 -0.013309614 -0.04096334
000170 7b bf e4 bd 06 c6 cb 3c 85 08 d7 bb cf f6 18 3c
       -0.111693345 0.024874698 -0.006562295 0.0093361875
000180 46 7a 7f 3d 55 29 0e bb 16 d6 62 bc 8f 14 cf bc
       0.06237247 -0.0021692116 -0.013844987 -0.025278358
000190 2c 15 83 bc 2e 31 c9 3b aa b7 d1 3b 0e bb 4b bc
       -0.016001306 0.006139896 0.0064000683 -0.012434734
0001a0 88 64 7a 3c 08 88 cc bb 8c 79 50 3b 87 b4 81 3d
       0.015282758 -0.006241802 0.0031810729 0.06333261
0001b0 e3 2f 97 3c 31 d4 b5 3b 02 68 a3 ba b8 a8 29 3b
       0.018455451 0.005548977 -0.001246691 0.0025887918
0001c0 c2 ff a1 bd b8 bc ee 3c d8 b8 7e 3c 4c d6 15 3c
       -0.0791011 0.029142722 0.015547 0.009145331
0001d0 94 71 25 ba a5 87 c7 bb da bd 0d 3c b7 6a ee 3b
       -0.0006311175 -0.006089168 0.008651221 0.007275905
0001e0 41 80 fc 3a 67 ca a2 3b 8f 7f 87 ba 87 94 c0 3b
       0.0019264297 0.004967976 -0.0010337698 0.005877081
0001f0 ca 3a 91 b9 3a 67 ea bb 97 61 fa bc 46 08 11 bd
       -0.00027700356 -0.007153419 -0.030564113 -0.03540828
000200 48 7a 3e 3d 01 97 5c 3b 66 d3 ca 39 7a ba 7c 3c
       0.046503335 0.0033659341 0.00038685946 0.015425319
000210 79 75 d0 bb c1 62 00 3c 46 66 5f 3c f7 d8 f3 3b
       -0.00636166 0.007836045 0.013635224 0.0074416357
000220 d7 60 3f bd 15 b7 08 bd 0e 07 60 bd e4 f6 06 3d
       -0.046723213 -0.033377726 -0.054694228 0.032950297
000230 9d 51 7d bd e3 08 35 bc c5 ad 19 bc ea d6 c0 3a
       -0.06184541 -0.011049482 -0.009379809 0.0014712487
000240 18 25 90 3d 6e 94 a2 3b dc d3 43 bb 65 1b 25 3c
       0.07038325 0.004961542 -0.0029880917 0.010077332
000250 2e f6 14 bc 9c 86 0a bc b0 97 8b 3b 9b 32 78 bb
       -0.009091897 -0.008454945 0.004260026 -0.003787196
000260 74 df 0d bc 6e 64 be bc 25 b5 10 bd 95 13 33 3d
       -0.008659232 -0.023241248 -0.035329003 0.043719847
000270 31 08 ab 3a 1f 3f be 3b 00 ad 4e 3a e2 54 17 3d
       0.0013048706 0.0058058645 0.00078840554 0.036946185
000280 f3 53 10 3c 3b cd 1f 3c 09 2e a1 ba d1 b9 80 3c
       0.008809078 0.009753521 -0.0012297045 0.015713604
000290 d4 71 7a 3c 5a 0d 44 3a 79 f9 b6 bb 02 81 0b bd
       0.015285928 0.0007478796 -0.0055839387 -0.03405858
0002a0 2d 39 a5 3b 03 cf c4 3c 6b 8c b5 3b f6 d5 4c bd
       0.0050422163 0.024024492 0.0055404208 -0.050008737
0002b0 40 bf 06 3b a8 be 37 3a 60 31 45 bb e3 85 09 be
       0.0020560771 0.0007009306 -0.0030089244 -0.1342998
0002c0 62 a8 fa bc b5 ca bc 3b c6 37 50 3d c5 97 d1 ba
       -0.03059787 0.0057614692 0.05083444 -0.0015990665
0002d0 d4 53 58 bd 0f c7 98 bd 67 88 3f bc 77 dc 30 bb
       -0.05281432 -0.074598424 -0.011690236 -0.0026986876
0002e0 e5 4d 29 3d e9 dd 01 3c 14 e7 13 bb d5 4e 5a 3c
       0.04133405 0.007926443 -0.0022568153 0.013324459
0002f0 65 8d 7f 3d 62 15 93 3b 07 21 15 3c e1 e8 8f bd
       0.062390704 0.004488633 0.009102113 -0.0702684
000300 e0 33 03 bb 99 66 26 3c 3f 11 9a 3a 93 7d 9e bd
       -0.0020019934 0.010156297 0.0011754407 -0.07738795
000310 de fe 06 bd e0 79 5c bc 25 29 55 bd 30 d6 97 3c
       -0.032957904 -0.013456792 -0.05204119 0.01853475
000320 4a 8a 94 ba 58 e6 e9 3c 43 cf 89 bb 62 03 8f 3b
       -0.0011332717 0.02855222 -0.0042056157 0.004364417
000330 9c 15 84 bc e3 80 bf bd 89 4b 84 3d 8f d1 2a bc
       -0.016123585 -0.09350755 0.0645972 -0.010425939
000340 34 1a 16 ba c5 f4 1a bc 07 d3 8c 3d 62 61 87 3c
       -0.00057259505 -0.009457772 0.06876188 0.016525928
000350 c6 d6 20 bd df 97 1d bd dd 52 38 3c 15 ff cf 3b
       -0.039267324 -0.038474914 0.011250225 0.006347547
000360 05 0a 90 bb c8 8d 30 3a 15 e8 69 3b 5b 53 42 bb
       -0.0043957257 0.0006734994 0.003569131 -0.0029651735
000370 59 42 e5 3d b1 95 a2 3c 60 89 5d 3c 41 66 00 3c
       0.111942954 0.019846769 0.013521522 0.007836879
000380 05 22 4c bb 0c d3 33 ba e7 b9 ff bb af f7 1d bc
       -0.0031148207 -0.00068597565 -0.0078041437 -0.009641572
000390 e2 15 37 bc 8f ae 99 3c f5 fd 97 bd 71 b5 af bb
       -0.011174651 0.018759994 -0.07421485 -0.0053622057
0003a0 1b 4d 9d 3b 9e 3f 64 bc 51 da 04 3d 7f 28 92 3d
       0.0048004515 -0.013931183 0.032434765 0.0713663
0003b0 53 ad 66 bc f9 94 18 3c cd 68 8d bb d1 db 21 bc
       -0.01407941 0.009312862 -0.0043154717 -0.0098790685
0003c0 ed 70 f9 3c d4 c8 42 3c 37 a6 41 3a f6 4c c3 bb
       0.030449355 0.0118887015 0.00073871337 -0.005960102
0003d0 9e cc 7c ba 0f d0 29 3c ea f4 4d 3b b8 73 ae 3b
       -0.00096435274 0.010364546 0.0031426498 0.0053238533
0003e0 49 50 7e ba 4b 62 e6 bb 3a 0c 0a bd 49 93 43 bb
       -0.00097012945 -0.0070307604 -0.033703066 -0.0029842427
0003f0 2d ab 6a bc e9 df 83 3b 9c 39 a0 bc cc 69 24 be
       -0.014323038 0.004024495 -0.01955872 -0.16055983

action_net.bias f4 [6]
000000 fa ad 80 3c 21 da d2 bd a1 5b d3 ba 19 1e 91 bb
       0.015707958 -0.10295511 -0.001612533 -0.0044286367
000010 da bb b9 bb 75 0e 36 3d
       -0.0056681456 0.04444738
