app/model.tflite (tflite, 2284 bytes, 4 tensors)

arith.constant f4 [3, 16]
-0.4290393 -0.2694956 0.46510684 0.016894104 -0.2077116 -0.15712954 -0.19400881 0.046638668
-0.10653994 0.28056502 -0.20631152 -0.41166526 -0.4622762 -0.096071154 0.22262579 0.12176928
0.16752288 -0.5263008 0.08634993 -0.07224744 0.15263583 -0.55067044 0.5157766 -0.38883412
0.10254881 0.5401311 0.10885301 -0.3690312 -0.42790613 -0.5204473 0.13768265 0.35168833
-0.5149247 -0.0072561256 0.47035897 -0.0016291761 -0.0860864 -0.3669114 -0.123416804 0.467289
0.49586692 -0.31441152 0.35441005 0.10433006 0.42322272 -0.47975746 0.22592354 -0.021552855
00000000: 0aab dbbe 54fb 89be 7c22 ee3e 8165 8a3c
00000010: 5ab2 54be 91e6 20be 3faa 46be 3008 3f3d
00000020: 9d31 dabd 38a6 8f3e 5443 53be cac5 d2be
00000030: 77af ecbe f4c0 c4bd 04f8 633e 2c62 f93d
00000040: 1e8b 2b3e a6bb 06bf 3bd8 b03d 77f6 93bd
00000050: 914c 1c3e bdf8 0cbf ef09 043f 4415 c7be
00000060: 1c05 d23d 0846 0a3f 54ee de3d a8f1 bcbe
00000070: 8316 dbbe 093c 05bf aefc 0c3e 7e10 b43e
00000080: 1bd2 03bf cbc4 edbb e4d2 f03e 148a d5ba
00000090: 114e b0bd d0db bbbe f3c1 fcbd 8140 ef3e
000000a0: 45e2 fd3e 8cfa a0be 3c75 b53e 00ab d53d
000000b0: a6b0 d83e c5a2 f5be 8058 673e 9d8f b0bc

functional_1_1/act_1/BiasAdd/ReadVariableOp f4 [3]
0.0076080845 0.005545453 -0.006343348
00000000: 3d4d f93b a2b6 b53b dcdb cfbb

functional_1_1/dense_1_1/BiasAdd/ReadVariableOp f4 [16]
-0.006155569 -0.007837829 -0.007749236 -0.0025222222 -0.0072449227 -0.004894038 -0.007069047 -0.007811576
-0.0064141885 0.0018964517 -0.0072665187 -0.005397021 -0.007610299 -0.0009515335 -0.007031127 -0.0008907115
00000000: a8b4 c9bb 3d6a 00bc 4eed fdbb de4b 25bb
00000010: d166 edbb 2b5e a0bb 77a3 e7bb 40f8 ffbb
00000020: 1d2e d2bb 5c92 f83a fa1b eebb 7ed9 b0bb
00000030: d15f f9bb 5570 79ba 5e65 e6bb a37e 69ba

functional_1_1/dense_1_1/MatMul f4 [16, 8]
0.06457794 0.45560956 0.25397596 0.07043908 0.026735278 0.4574138 0.29286596 0.36292967
0.39947137 -0.32810515 -0.37753925 0.19216737 0.12529036 -0.24146147 -0.046397436 0.21569277
-0.17313363 0.08777018 -0.3206745 -0.1754272 0.23579657 0.18824798 -0.44257116 -0.47915378
0.19628018 0.34016746 0.47777092 -0.39102292 -0.2615009 -0.3135201 -0.38660604 0.23392023
-0.29889402 0.044607714 -0.18364528 0.10515149 -0.01231262 0.25469914 0.058137763 0.28086036
-0.11725521 0.099722214 -0.23938574 0.41452354 -0.28041834 0.26450488 0.100724 0.45693856
-0.46913034 0.03626088 0.4272677 0.22270052 -0.08548441 -0.13550085 -0.076393865 0.02383409
0.33111098 -0.04583313 -0.27343395 0.276715 0.24231564 -0.35914823 -0.08326975 -0.35670504
-0.038337056 0.3627283 -0.050487675 -0.45064527 0.19741616 0.47811782 -0.2120506 0.39906907
-0.49101043 0.29095435 -0.34816635 -0.11336052 0.048821807 0.23725407 0.0006376761 -0.258637
-0.051198177 0.05034756 -0.29485023 0.41199443 0.008816524 0.40158156 -0.3901316 -0.17062016
-0.12329903 -0.09257594 -0.061346237 -0.06512293 0.39017153 0.2972288 -0.17670119 -0.29954997
0.1069876 0.08191077 -0.31430775 -0.45658228 -0.2500394 -0.2543987 0.4178488 -0.15210101
-0.2477859 -0.41473025 -0.20806135 -0.46034575 0.24035135 0.2133361 0.059694026 -0.037137207
0.4304222 0.025945606 -0.04690804 0.054267906 -0.33770382 -0.038660716 -0.18947649 -0.42751577
-0.31628096 0.18172991 -0.37422413 -0.18254723 0.150764 0.12969135 -0.10293987 -0.2161613
00000000: 7041 843d a845 e93e 2309 823e 5d42 903d
00000010: f103 db3c 2432 ea3e 87f2 953e ebd1 b93e
00000020: 8387 cc3e 66fd a7be d34c c1be 86c7 443e
00000030: 1e4c 003e ad41 77be 3d0b 3ebd 91de 5c3e
00000040: f149 31be dac0 b33d 732f a4be 30a3 33be
00000050: a874 713e 14c4 403e b098 e2be a553 f5be
00000060: acfd 483e 6e2a ae3e 649e f43e 2834 c8be
00000070: 72e3 85be b585 a0be 3af1 c5be c988 6f3e
00000080: a308 99be 94b6 363d 820d 3cbe aa59 d73d
00000090: dfba 49bc ed67 823e dd21 6e3d eecc 8f3e
000000a0: 8023 f0bd 293b cc3d 8921 75be 6e3c d43e
000000b0: fe92 8fbe 2f6d 873e 6248 ce3d daf3 e93e
000000c0: da31 f0be 4a86 143d d5c2 da3e 9b0b 643e
000000d0: 7312 afbd bcc0 0abe 6374 9cbd b63f c33c
000000e0: 6187 a93e 85bb 3bbd 89ff 8bbe 97ad 8d3e
000000f0: 9721 783e 47e2 b7be 5589 aabd 0ba2 b6be
00000100: 5107 1dbd 86b7 b93e 2acc 4ebd faba e6be
00000110: 7627 4a3e dccb f43e cb23 59be c852 cc3e
00000120: b865 fbbe f8f7 943e dc42 b2be 8f29 e8bd
00000130: 60f9 473d bbf2 723e b829 273a 126c 84be
00000140: 2eb5 51bd 3e39 4e3d 9cf6 96be eff0 d23e
00000150: 2f73 103c 199c cd3e 54bf c7be 0db7 2ebe
00000160: 3484 fcbd 7498 bdbd 3146 7bbd 2c5f 85bd
00000170: 90c4 c73e 602e 983e 28f1 34be 9d5e 99be
00000180: 511c db3d d5c0 a73d f2ec a0be 27c5 e9be
00000190: 2a05 80be 8c40 82be 47f0 d53e 5ec0 1bbe
000001a0: 96bb 7dbe 8657 d4be 090e 55be 70b2 ebbe
000001b0: aa1e 763e c774 5a3e b981 743d 2f1d 18bd
000001c0: 4c60 dc3e e18b d43c a522 40bd 0648 5e3d
000001d0: 84e7 acbe b35a 1ebd 2006 42be 59e3 dabe
000001e0: 94ef a1be 6817 3a3e 4e9a bfbe a9ed 3abe
000001f0: e161 1a3e cfcd 043e 23d2 d2bd 6359 5dbe
